pytorch lightning/lightning_logs/version_11/checkpoints/epoch=0-step=1718.ckpt (torch_old, 663946 bytes, 18 tensors)

exp_avg f4 [64, 784]
00000000: 1c89 0c3a 1c89 0c3a 1c89 0c3a 1c89 0c3a
00000010: 1c89 0c3a 1c89 0c3a 1c89 0c3a 1c89 0c3a
00000020: 1c89 0c3a 1c89 0c3a 1c89 0c3a 1c89 0c3a
00000030: 1c89 0c3a 1c89 0c3a 1c89 0c3a 1c89 0c3a
00000040: 1c89 0c3a 1c89 0c3a 1c89 0c3a 1c89 0c3a
00000050: 1c89 0c3a 1c89 0c3a 1c89 0c3a 1c89 0c3a
00000060: 1c89 0c3a 1c89 0c3a 1c89 0c3a 1c89 0c3a
00000070: 1c89 0c3a 1c89 0c3a 1c89 0c3a 1c89 0c3a
00000080: 1c89 0c3a 1c89 0c3a 1b89 0c3a 1a89 0c3a
00000090: 1a89 0c3a 1c89 0c3a 1c89 0c3a 607b 0c3a
000000a0: d8a6 0b3a 18f6 0b3a 4e50 0c3a 8d89 0b3a
000000b0: bf6a 0c3a 0e89 0c3a 1c89 0c3a 1c89 0c3a
000000c0: 1c89 0c3a 1c89 0c3a 1c89 0c3a 1c89 0c3a
000000d0: 1c89 0c3a 1c89 0c3a 1c89 0c3a 1c89 0c3a
000000e0: 1c89 0c3a 1c89 0c3a 1c89 0c3a 1c89 0c3a
000000f0: 1c89 0c3a 1c89 0c3a 1c89 0c3a 45a3 0a3a
00000100: e4db 053a f99a 043a 9a29 063a a731 0a3a
00000110: 1b53 0b3a fa11 0f3a 696c 0a3a a046 083a
00000120: c1b7 0f3a f439 143a e220 133a 5be3 113a
00000130: 364a 0c3a 1888 0f3a cf08 0d3a 1c89 0c3a
00000140: 1c89 0c3a 1c89 0c3a 1c89 0c3a 1c89 0c3a
00000150: 1c89 0c3a 1c89 0c3a 1c89 0c3a 1c89 0c3a
00000160: 1c89 0c3a e688 0c3a 9d88 0c3a 5dab 063a
00000170: 5892 dd39 d281 f939 bb49 f239 3c52 143a
00000180: c964 83ba 7271 50bb 49da 1ebb da25 f239
00000190: f06a 02ba 0d94 b23a 160d 6c3a 60ab 063a
000001a0: 7dcd ee39 2a65 e839 ab39 fc39 7284 0c3a
000001b0: 9d70 0b3a 1f89 0c3a 1c89 0c3a 1c89 0c3a
000001c0: 1c89 0c3a 1c89 0c3a 1c89 0c3a 85e6 0c3a
000001d0: 7baa 0c3a a670 0c3a 89a7 063a f7fb d839
000001e0: 3106 ed39 c60a 203a ede6 1c3a 7e68 733a
000001f0: b92b d1ba b326 62bb ed1e 53bb d4b5 ffba
00000200: 52e4 4cbb a043 afb9 5a8e ef3a 2267 d93a
00000210: 8b6b 593a 9721 7cb9 d721 04ba 13ed ebb9
00000220: 797b 6339 cb35 0f3a abf9 0c3a 1c89 0c3a
00000230: 1c89 0c3a 1c89 0c3a 1c89 0c3a d034 0e3a
00000240: 485e 0d3a 262f 063a 947a 8039 1d21 9139
00000250: 8ffc e939 7397 283a f782 aa39 d48b 3cb9
00000260: 63a8 6abb cebf 65bb 16b5 15bb 0e8c 50bb
00000270: 4c7c 8abb a4b0 0cbb f089 6339 2f70 9439
00000280: 0ef5 193a 255b 8e39 c6b2 ddb9 5e66 1839
00000290: 223b 223a 5310 5b3a 7c31 0d3a e07f 0c3a
000002a0: 1c89 0c3a 1c89 0c3a 1c89 0c3a d244 0d3a
000002b0: 3d83 0b3a 70dd a539 6dec 0839 97ad 6d39
000002c0: 9097 2137 64ec 82ba f5f5 85ba 015a b7ba
000002d0: 4720 f7ba b105 04bb 8f4d bf39 dc5f 86ba
000002e0: aa36 1dbb aa58 14bb 659e b0ba 9c6b 6eba
000002f0: 816e 10ba 9998 c9b9 bede b7b9 7ca0 623a
00000300: a2c1 9a3a 7a80 813a ac98 0c3a a585 0c3a
00000310: 1c89 0c3a 1c89 0c3a d1d5 0c3a a296 0d3a
00000320: 62a3 0c3a abbc c439 6e3f 3c3a 0578 cf39
00000330: dcaf 1639 3069 60ba a06b aeba 08ab 98ba
00000340: bd46 d7ba 98fc 22b9 c1cd 0c3b 8d03 63bb
00000350: df79 b0bb 4a8a 7abb 3363 4ebb b189 03bb
00000360: 84f1 e0ba 7c4e a5ba dc1e a3ba d7f8 dc39
00000370: 7bdb 5d3a bf9c 223a 0178 0d3a ff88 0c3a
00000380: 1c89 0c3a 1c89 0c3a 6a57 0b3a 9cda 0d3a
00000390: e682 033a 5839 413a f347 8e3a 6fac 4b3a
000003a0: 3025 a439 4483 e7b8 d38d b9ba d883 e6ba
000003b0: 03f0 07bb 3497 033b 4476 d33a 2d43 b1bb
000003c0: 2a69 9dbb 0957 88bb ef55 ecba 668a c23a
000003d0: ff48 68b9 03e8 ecb9 7f54 1239 d534 2a3a
000003e0: 4d79 073a 68e4 d5b7 93a1 0d3a 1c89 0c3a
000003f0: 1c89 0c3a 1c89 0c3a 4101 0d3a 5e3c 0b3a
0.0005361007 0.0005361007 0.0005361007 0.0005361007 0.0005361007 0.0005361007 0.0005361007 0.0005361007
0.0005361007 0.0005361007 0.0005361007 0.0005361007 0.0005361007 0.0005361007 0.0005361007 0.0005361007
0.0005361007 0.0005361007 0.0005361007 0.0005361007 0.0005361007 0.0005361007 0.0005361007 0.0005361007
0.0005361007 0.0005361007 0.0005361007 0.0005361007 0.0005361007 0.0005361007 0.0005361007 0.0005361007
0.0005361007 0.0005361007 0.00053610065 0.0005361006 0.0005361006 0.0005361007 0.0005361007 0.00053589605
0.0005327291 0.00053391 0.00053525425 0.0005322926 0.00053564826 0.0005360999 0.0005361007 0.0005361007
0.0005361007 0.0005361007 0.0005361007 0.0005361007 0.0005361007 0.0005361007 0.0005361007 0.0005361007
0.0005361007 0.0005361007 0.0005361007 0.0005361007 0.0005361007 0.0005361007 0.0005361007 0.0005288611
0.00051063136 0.0005058493 0.00051178935 0.0005271681 0.0005314813 0.0005457696 0.00052804366 0.0005198512
0.00054823986 0.00056543876 0.0005612505 0.00055651896 0.00053516345 0.00054752966 0.0005380036 0.0005361007
0.0005361007 0.0005361007 0.0005361007 0.0005361007 0.0005361007 0.0005361007 0.0005361007 0.0005361007
0.0005361007 0.00053609756 0.0005360933 0.00051372295 0.0004226144 0.00047589705 0.0004621277 0.0005658006
-0.0010024543 -0.00318059 -0.0024238995 0.00046186039 -0.00049750414 0.0013624445 0.00090046355 0.0005137231
0.00045547998 0.0004432586 0.00048108152 0.0005360312 0.000531921 0.0005361009 0.0005361007 0.0005361007
0.0005361007 0.0005361007 0.0005361007 0.0005374926 0.000536598 0.0005357362 0.0005136659 0.0004138646
0.00045208776 0.0006105121 0.00059853384 0.0009285285 -0.0015958465 -0.003450793 -0.0032214478 -0.0019509145
-0.003126402 -0.00033428986 0.0018276677 0.0016586522 0.0008293918 -0.00024045106 -0.0005040443 -0.00044999327
0.00021694404 0.0005463033 0.00053777796 0.0005361007 0.0005361007 0.0005361007 0.0005361007 0.000542474
0.0005392772 0.000511872 0.0002450539 0.00027681226 0.00044629394 0.0006431259 0.00032522503 -0.00017981167
-0.0035805933 -0.0035056951 -0.0022843531 -0.003182176 -0.004226243 -0.002146759 0.00021699793 0.00028312343
0.0005873003 0.0002715226 -0.000422856 0.00014533984 0.0006188621 0.00083566195 0.0005386097 0.0005359631
0.0005361007 0.0005361007 0.0005361007 0.0005388978 0.0005321985 0.00031636236 0.00013058046 0.00022666749
9.631636e-06 -0.0009988663 -0.0010220396 -0.0013988615 -0.0018854224 -0.0020144994 0.00036488145 -0.0010251957
-0.002398888 -0.0022635856 -0.001347494 -0.00090950145 -0.00055096304 -0.00038451402 -0.00035070436 0.000864513
0.0011806975 0.0009880208 0.0005363326 0.0005360491 0.0005361007 0.0005361007 0.00053724373 0.0005401169
0.0005364922 0.00037524602 0.00071810826 0.00039571538 0.00014370627 -0.0008560596 -0.0013307221 -0.0011647651
-0.001642428 -0.00015543622 0.0021484944 -0.0034639568 -0.005385622 -0.00382294 -0.0031492233 -0.0020071084
-0.0017161821 -0.0012611891 -0.001244511 0.0004214707 0.0008463186 0.00062031666 0.0005396605 0.000536099
0.0005361007 0.0005361007 0.0005315455 0.00054112985 0.0005016759 0.00073709106 0.0010855183 0.000776953
0.00031308224 -0.000110393885 -0.0014156647 -0.00175869 -0.0020742423 0.0020079138 0.0016133268 -0.0054096193
-0.0048037963 -0.004160766 -0.0018030981 0.0014842271 -0.00022152437 -0.0004518629 0.00013955122 0.0006492858
0.00051679165 -2.5497939e-05 0.00054027996 0.0005361007 0.0005361007 0.0005361007 0.000537891 0.00053114246

exp_avg_sq f4 [64, 784]
00000000: 395b 0c37 395b 0c37 395b 0c37 395b 0c37
00000010: 395b 0c37 395b 0c37 395b 0c37 395b 0c37
00000020: 395b 0c37 395b 0c37 395b 0c37 395b 0c37
00000030: 785a 0c37 2fc6 0c37 0a5d 0c37 445b 0c37
00000040: 395b 0c37 395b 0c37 395b 0c37 395b 0c37
00000050: 395b 0c37 395b 0c37 395b 0c37 395b 0c37
00000060: 395b 0c37 395b 0c37 395b 0c37 395b 0c37
00000070: 395b 0c37 395b 0c37 395b 0c37 395b 0c37
00000080: df5a 0c37 8059 0c37 a864 0c37 101e 0d37
00000090: db58 0e37 19f9 0b37 31e1 0c37 91cd 0d37
000000a0: 3e5f 1137 5ea9 0c37 8d0f 1637 0171 1d37
000000b0: 41f0 0d37 36e7 0c37 3a68 0c37 3399 0d37
000000c0: 1c6f 0c37 ff72 0c37 c667 0c37 0b74 0c37
000000d0: 395b 0c37 395b 0c37 395b 0c37 395b 0c37
000000e0: 395b 0c37 395b 0c37 0e5b 0c37 ca56 0c37
000000f0: 3c5a 0c37 695c 0c37 3dd7 0c37 eb65 1037
00000100: 70ce 0f37 f1ac 1037 b5b0 1337 3001 1737
00000110: 36a8 1d37 fced 4037 81aa 4337 ed35 5437
00000120: 1ad6 2137 634b 1237 cf5a 1037 d0d3 1537
00000130: 1f4d 0d37 3885 0d37 d2bb 0c37 b773 0c37
00000140: de11 0c37 ad48 0c37 395b 0c37 395b 0c37
00000150: 395b 0c37 395b 0c37 fb5a 0c37 aa44 0c37
00000160: 755f 0c37 b39f 0c37 abb8 0d37 31bf 1137
00000170: 1b5c 1637 fb97 2837 a202 3037 235e 4337
00000180: 2783 5a37 44e1 9e37 d200 b137 3da5 b437
00000190: 0324 9437 e421 8e37 d8df 7237 299f 5237
000001a0: 8709 4437 e71e 3337 bdf3 1337 7dec 1137
000001b0: aa32 0f37 fc55 0c37 7b1c 0d37 395b 0c37
000001c0: 395b 0c37 345b 0c37 f359 0c37 c710 0c37
000001d0: 27f4 0c37 842d 0d37 6b13 0f37 343f 1c37
000001e0: e297 2e37 fab7 6e37 e7ed a037 bab4 bf37
000001f0: 2dc0 0338 8dcc 3338 3558 5b38 2ac6 5d38
00000200: 88f2 3b38 7a89 2238 4f36 0038 1f69 e137
00000210: d9a1 b637 438c 8e37 8e25 5537 4aeb 3737
00000220: 3b24 2537 0905 1037 c966 0c37 395b 0c37
00000230: 395b 0c37 395b 0c37 8952 0c37 3efa 0b37
00000240: b36f 0f37 3d02 1837 a5b1 2137 261a 4737
00000250: 5c37 8437 6fb0 c537 eeeb 2038 59a5 6b38
00000260: ce18 9d38 723b c838 0b0a ef38 8484 f938
00000270: 1eaf e038 243a be38 7946 9638 fffa 5f38
00000280: 55f6 2b38 5067 f737 2374 a537 21a0 6037
00000290: 6ae3 1e37 d322 1037 06f5 0b37 315b 0c37
000002a0: 395b 0c37 365b 0c37 926a 0c37 3d9d 0c37
000002b0: e9a7 1337 f1dd 2237 f167 5437 ad08 9637
000002c0: 348b d737 a3d5 2c38 63f1 8a38 cb33 c638
000002d0: f006 f438 a2f2 1739 41a9 2739 4bb1 2e39
000002e0: f02f 2239 5c39 1139 fb4c e938 6854 ae38
000002f0: 9080 8538 ddfa 3238 d013 e537 2e90 8637
00000300: 1103 3a37 bfd7 1937 e4fd 0c37 0b64 0c37
00000310: 395b 0c37 be5e 0c37 6bd5 0c37 8cf7 0d37
00000320: 7884 1637 daa3 4337 6ec9 8c37 38a3 dd37
00000330: 80f8 1f38 2e2a 7838 da7d bc38 3f8f f038
00000340: fd3c 0f39 bff3 1e39 c699 2d39 b7b2 3439
00000350: 257d 3339 fab8 2739 9d07 0c39 d336 df38
00000360: 0f50 a038 1fe2 6638 2351 0d38 9862 b937
00000370: 46ca 5937 0eb4 2637 a1b2 1037 1155 0c37
00000380: 395b 0c37 12a2 0c37 4574 0c37 d585 0f37
00000390: 512d 2137 5a50 6c37 de9e b637 992e 0e38
000003a0: 238e 4c38 3aff 9c38 953e d438 294c 0139
000003b0: 9688 0939 e847 1239 ed49 1739 35d1 2639
000003c0: a811 2839 58df 1b39 56ea 0e39 7eeb f438
000003d0: 4b97 b138 ac93 7638 6d6c 1f38 722d d537
000003e0: 3167 7e37 e2f5 2937 a668 0f37 a6e5 0c37
000003f0: 2b5b 0c37 b256 0c37 6fff 0c37 39db 1137
8.36589e-06 8.36589e-06 8.36589e-06 8.36589e-06 8.36589e-06 8.36589e-06 8.36589e-06 8.36589e-06
8.36589e-06 8.36589e-06 8.36589e-06 8.36589e-06 8.365714e-06 8.3907935e-06 8.366313e-06 8.3659e-06
8.36589e-06 8.36589e-06 8.36589e-06 8.36589e-06 8.36589e-06 8.36589e-06 8.36589e-06 8.36589e-06
8.36589e-06 8.36589e-06 8.36589e-06 8.36589e-06 8.36589e-06 8.36589e-06 8.36589e-06 8.36589e-06
8.365808e-06 8.365489e-06 8.368086e-06 8.411254e-06 8.484548e-06 8.343043e-06 8.397082e-06 8.452117e-06
8.664849e-06 8.384084e-06 8.944317e-06 9.38424e-06 8.460193e-06 8.398483e-06 8.368917e-06 8.439924e-06
8.37052e-06 8.371425e-06 8.368812e-06 8.371669e-06 8.36589e-06 8.36589e-06 8.36589e-06 8.36589e-06
8.36589e-06 8.36589e-06 8.365851e-06 8.364857e-06 8.36566e-06 8.366166e-06 8.394764e-06 8.6067985e-06
8.571529e-06 8.623335e-06 8.803026e-06 9.000578e-06 9.397094e-06 1.1499502e-05 1.1662604e-05 1.264874e-05
9.646197e-06 8.7198305e-06 8.604212e-06 8.9304085e-06 8.422211e-06 8.435272e-06 8.388381e-06 8.371592e-06
8.34881e-06 8.361571e-06 8.36589e-06 8.36589e-06 8.36589e-06 8.36589e-06 8.365833e-06 8.360637e-06
8.366876e-06 8.381833e-06 8.447251e-06 8.687189e-06 8.962142e-06 1.0048966e-05 1.04910305e-05 1.1644824e-05
1.3024349e-05 1.8939965e-05 2.1100426e-05 2.1534617e-05 1.7659744e-05 1.69435e-05 1.4476442e-05 1.2554033e-05
1.1684729e-05 1.0676426e-05 8.8186325e-06 8.697735e-06 8.53526e-06 8.36467e-06 8.410886e-06 8.36589e-06
8.36589e-06 8.365885e-06 8.365593e-06 8.348557e-06 8.401496e-06 8.414852e-06 8.527985e-06 9.31304e-06
1.0406571e-05 1.4228741e-05 1.9184268e-05 2.2853132e-05 3.141181e-05 4.286743e-05 5.2295818e-05 5.287506e-05
4.481015e-05 3.8751845e-05 3.0568157e-05 2.6871041e-05 2.1771457e-05 1.6993034e-05 1.2704533e-05 1.09624325e-05
9.843202e-06 8.584241e-06 8.368582e-06 8.36589e-06 8.36589e-06 8.36589e-06 8.363867e-06 8.34331e-06
8.549471e-06 9.060427e-06 9.637709e-06 1.18674125e-05 1.5761405e-05 2.3566388e-05 3.83667e-05 5.6182358e-05
7.4909636e-05 9.547816e-05 0.00011398279 0.00011897928 0.000107137705 9.0707355e-05 7.165684e-05 5.34011e-05
4.099899e-05 2.9492803e-05 1.9723613e-05 1.3388723e-05 9.470483e-06 8.591177e-06 8.342095e-06 8.365882e-06
8.36589e-06 8.365887e-06 8.369463e-06 8.38126e-06 8.800977e-06 9.707627e-06 1.2660385e-05 1.7885433e-05
2.5694819e-05 4.120696e-05 6.6253146e-05 9.451023e-05 0.00011636119 0.0001449087 0.00015989413 0.0001665998
0.00015467382 0.00013849646 0.000111246445 8.3126884e-05 6.365881e-05 4.267214e-05 2.7308153e-05 1.6041184e-05
1.1087178e-05 9.169743e-06 8.403764e-06 8.367943e-06 8.36589e-06 8.366709e-06 8.3943405e-06 8.461891e-06
8.9715395e-06 1.1661055e-05 1.6783099e-05 2.6421258e-05 3.8139988e-05 5.916709e-05 8.98798e-05 0.000114707735
0.00013660263 0.00015158857 0.00016555851 0.00017232714 0.0001711739 0.0001599527 0.00013354277 0.000106436804
7.6443066e-05 5.5046865e-05 3.3692584e-05 2.209963e-05 1.2981303e-05 9.936293e-06 8.624659e-06 8.364456e-06
8.36589e-06 8.382385e-06 8.371721e-06 8.554624e-06 9.606899e-06 1.40854045e-05 2.1770069e-05 3.3898836e-05
4.8769765e-05 7.486199e-05 0.000101206046 0.0001233077 0.0001311622 0.00013950432 0.00014428022 0.0001590893
0.00016028306 0.00014865154 0.00013629472 0.000116786905 8.468198e-05 5.87885e-05 3.8009533e-05 2.541274e-05
1.5163606e-05 1.0130434e-05 8.54783e-06 8.3981195e-06 8.365877e-06 8.364836e-06 8.404123e-06 8.693715e-06

exp_avg f4 [64]
00000000: 8aa4 a5ba 36dc 113b 9186 b4ba 2814 e5ba
00000010: 42c7 3f39 206a fcb8 38cf 2cba 6111 b1ba
00000020: cfdd 083b 7c3c 61ba 6e4e f2b9 1c4e 9d39
00000030: 3293 afba 5146 9639 61a9 9b3a cfa3 cd39
00000040: ed99 ba39 4878 49ba 55de ea3a aeb6 7839
00000050: 16ef b439 3bb3 5bba 034c e3b9 77b2 a0ba
00000060: 3cc8 b4b9 7e32 d039 4433 6bbb 43a5 7e3a
00000070: b6f8 1f3a e503 f6ba b1a0 e73a b218 943a
00000080: 8bf4 723a 7f23 c9ba d5c1 edba 1666 abba
00000090: b669 8b39 2771 5aba a39e f33a c771 91b8
000000a0: 182e 403b da34 26ba 67c0 ceb8 a8ba 0fba
000000b0: 47ec 9dba e1f8 6c3a 779c 3636 3c07 87ba
000000c0: 0ad3 56ba 6a2e 99ba 2360 2eb8 e855 a33a
000000d0: a708 d13a 2455 8c3a 7368 9bba 9657 14ba
000000e0: 6b04 4fb9 2bb4 8eba b046 62b6 101d 213b
000000f0: 7ce2 2739 b66e f1ba e88d d63a bf14 3bba
-0.0012637537 0.00222565 -0.0013773014 -0.001747732 0.00018289409 -0.00012036064 -0.00065921573 -0.0013509208
0.0020884161 -0.0008592082 -0.00046216272 0.0003000357 -0.0013395308 0.0002866262 0.001187604 0.00039222694
0.00035591368 -0.0007685465 0.0017919043 0.00023719177 0.00034510408 -0.00083808944 -0.00043353447 -0.0012260218
-0.00034481462 0.0003971047 -0.003588871 0.0009713957 0.00061024295 -0.0018769471 0.0017671791 0.0011298864
0.0009268007 -0.0015345662 -0.0018139431 -0.0013076689 0.00026590907 -0.0008332901 0.0018586706 -6.9353315e-05
0.002932435 -0.0006340273 -9.858683e-05 -0.0005482831 -0.0012048566 0.00090397714 2.7211188e-06 -0.0010301839
-0.00081948994 -0.0011686806 -4.1574367e-05 0.0012461515 0.0015948013 0.0010706526 -0.001185669 -0.0005658803
-0.00019742704 -0.0010887434 -3.371777e-06 0.0024583973 0.00016010733 -0.0018419835 0.0016369196 -0.00071365753

exp_avg_sq f4 [64]
00000000: 81fc 4238 ef03 2838 199e d637 ccc9 2837
00000010: 1cae 4b37 fa7b d237 91b1 d437 24f5 3938
00000020: 9d34 c437 4a76 c337 2257 5d38 b0ad 1838
00000030: 7205 aa37 28c4 de37 adbf bb37 beb2 fe37
00000040: db7f d437 10f7 0338 3d42 5a38 d7e0 9c37
00000050: ef55 9e37 b99b 8137 81b6 b737 ba2c d537
00000060: f098 c537 64f5 bd37 acae f637 0141 fb37
00000070: e8c3 1e38 d18b 3338 2b81 5f38 f437 0b38
00000080: 210a 6137 e8a1 b037 1d54 f137 dd73 b337
00000090: d738 a937 3bd4 f237 5c8b b637 8996 d337
000000a0: 0e8f d537 b18e fc37 3fc6 ad37 88e0 4b38
000000b0: 8af2 0838 87d7 5838 f7ce ef37 4b80 1c38
000000c0: 2ae4 c037 ae24 4b38 1070 fb37 9c4f dd37
000000d0: a3a3 0f38 cd7d 4438 7ce5 5b38 ee90 fb37
000000e0: 3eb5 a737 2b5c 9537 5f63 fd37 02ce a737
000000f0: f9fa ba37 98bc f737 535d 0238 be06 d837
4.6488367e-05 4.0057985e-05 2.5584408e-05 1.0060565e-05 1.2140281e-05 2.5091682e-05 2.5355055e-05 4.4335742e-05
2.338952e-05 2.3300894e-05 5.2771655e-05 3.6401383e-05 2.0268115e-05 2.6555805e-05 2.2381393e-05 3.0362393e-05
2.5331907e-05 3.146293e-05 5.203694e-05 1.8701348e-05 1.8875084e-05 1.5450512e-05 2.1900285e-05 2.5412406e-05
2.3555447e-05 2.2644825e-05 2.9406823e-05 2.9951801e-05 3.7852587e-05 4.280714e-05 5.328764e-05 3.3192293e-05
1.3413403e-05 2.1056228e-05 2.8768607e-05 2.1392416e-05 2.0172838e-05 2.8947476e-05 2.1760985e-05 2.5223258e-05
2.5458194e-05 3.0107187e-05 2.0715523e-05 4.8608083e-05 3.265081e-05 5.169914e-05 2.8587396e-05 3.731278e-05
2.299443e-05 4.8433132e-05 2.9973715e-05 2.6382324e-05 3.4246255e-05 4.6847203e-05 5.2427393e-05 2.998902e-05
1.9992349e-05 1.7805103e-05 3.0206224e-05 2.0003881e-05 2.2289796e-05 2.9532515e-05 3.108133e-05 2.5752346e-05

exp_avg f4 [64, 64]
00000000: ab1d d8bb 0233 afbb 2faa fdbb ef5d 68bb
00000010: 2154 12bc 951a f0bb 89f7 dfbb c353 e939
00000020: e3dd 74bb 1377 9abb a382 afbb 3477 2dba
00000030: 60d6 9bbb 8838 95bb 61e9 5dbb be72 dabb
00000040: 5a67 d3ba 2ca5 b0ba 7a44 82bb 088f b2ba
00000050: ce7b 90bb 10f0 63bb d85b a1ba e00e bebb
00000060: 3a3d 94ba db8f 03bc f755 50bb f419 c1bb
00000070: d24c 84bb 14ab 07bc 27cf 24bb cc28 8abb
00000080: 1a38 c8bb 52be e4bb 7511 6eba 72cc dbbb
00000090: a917 b1bb fd9d 91b9 7b90 83ba 8532 aebb
000000a0: c99c 43bb 5245 96ba 1a27 3dbb 86b9 89bb
000000b0: ee1b 1bbb 4473 393a 654f 7138 704e d4ba
000000c0: c567 6abb 56fa 7139 0f8e abbb 58c1 a7bb
000000d0: f6a5 1dba b1a9 86bb 4267 a2bb 6527 b5bb
000000e0: 41eb 32bb f48d d5bb dc4d c8bb add2 b4bb
000000f0: 63f9 45bb a7c2 84bb 11ce b4ba 29b4 a5ba
00000100: 90b2 0f3b f409 783a 75cf be3a b9d7 ec39
00000110: 1448 b73b 7708 0c3b 2d77 803b 1ed1 a43a
00000120: 7a60 da3a 9fb6 7c3b 8e36 983b 273a 9a3a
00000130: 823e 4d3b fc3d 963a d621 a53b 149b 4c3a
00000140: b78a b93a 9913 7f3a de49 e6ba 59e8 5a3b
00000150: 7132 2f3b 44e8 243a 250b 593b af98 4f3a
00000160: 714b be3a b404 9c3a 4b64 003b 59d2 353b
00000170: d885 733a eeea 1a3b b193 ddba 7608 6d3b
00000180: fb80 413b ed89 a13a 7494 0d3b 01a5 393b
00000190: eac3 7839 bf7f aa3b 76cb 7f3a f3b4 c83a
000001a0: 31a5 ae3b c4d6 a73b 5d55 0d3b bbe2 833a
000001b0: 0e2e 0b3a cf30 9c3b 28c6 7a3a e588 b33a
000001c0: 905b 1c3c 02a2 403b 6162 8b3b c7eb bb3a
000001d0: 4b28 263b 32b6 36ba 5689 593b ef24 e23a
000001e0: 6831 b13b c4fc 4a3a 81c3 033a 579f 4f3a
000001f0: ae1d 043a 54a8 4d3b 6247 3a3b 5182 8b3b
00000200: 6903 ba3a 2242 09bb 5676 b83b 6b4a 19bb
00000210: c0a9 143a a8dd 7a3a c45d d33a 0ba7 3dbb
00000220: 6289 71bb e72e 4d3b c14a 513b 5890 38bb
00000230: 846d d73a 86dd d23a 5bd1 043b 520b 1fbb
00000240: 199f b7b9 34fc 0fb7 b059 10ba d392 bfba
00000250: 3e50 303b eb63 b2ba eeef 09ba 26bc 453a
00000260: 087f 28bb 09fb 983b 5aac a53a 83ae 483a
00000270: 9319 09bb 6e5b 843b 5559 6bb9 a32a c2bb
00000280: d8ed 163b 76ac 8ab9 ca84 a636 20ea 2e3b
00000290: 9bc7 763b b8da 913a 5535 f8b9 3b71 01bb
000002a0: aafd 4dbb d44a e6ba 6879 5a3a dab1 acbb
000002b0: bcef 3e3a 070e 5bbb 9fb1 7dbb bad4 75b7
000002c0: fb8f b93b 8ffa cc3a 0ddc 923b a6a4 883a
000002d0: bee4 ab3a a09e 6338 b23d 4e3b fcb0 5aba
000002e0: 4473 5cb9 d1bc a6bb f2a5 0c39 ec5a 82bb
000002f0: d976 d4ba ab9b 0dbb 306b 43ba fc3d eeba
00000300: 9c96 03bb 1baa 04ba cddb 2eba 959b fd3a
00000310: 1e9a 8d3b 232a 7abb f9f6 2f3b 6f11 ba39
00000320: fb56 513a a752 9038 4906 9b3a 05e0 ebba
00000330: 9748 6c3a 63af 0c3a cdc4 8fbb b190 843b
00000340: ea71 eebb d29b 33bb 74f0 38b8 1843 da3a
00000350: 7fec af3a ed28 fa3a b784 d8b7 d296 a9b9
00000360: a16a b5ba 4847 a13a fd01 7c3a 854b ac39
00000370: 39bc 743b 3979 b43a a618 403a 40fa 943a
00000380: 3edc 6c3a 6891 cc3a a9dc f4ba 6c3b 9d3b
00000390: 9173 2d39 d172 27b9 84d4 08ba 6852 9b3b
000003a0: abfe 0339 5e87 58ba e89b 283b 3990 d83b
000003b0: 9d03 1eba dcb4 073b e765 0bb9 35a6 bcb9
000003c0: 2317 d03a e187 a03a 873d a8ba 2447 efbb
000003d0: dad7 073a a340 963a 631c c23a 9052 11bb
000003e0: 1d89 d039 44e6 993b a335 603a 695a a63b
000003f0: 1429 13bb 8f86 803a 6109 20bb d8cd 753b
-0.0065953336 -0.005346657 -0.0077412347 -0.003545638 -0.008931191 -0.0073273876 -0.0068349284 0.0004450363
-0.00373637 -0.004713902 -0.0053561493 -0.0006617189 -0.00475578 -0.004553858 -0.0033861028 -0.0066665104
-0.0016128824 -0.001347696 -0.003975448 -0.0013622949 -0.00440929 -0.003478054 -0.0012310697 -0.005800113
-0.0011309751 -0.008029903 -0.003178952 -0.0058929864 -0.004037478 -0.008280534 -0.0025147886 -0.004216289
-0.0061102035 -0.0069806958 -0.0009081581 -0.0067077214 -0.005404432 -0.00027774266 -0.0010037565 -0.005316081
-0.002984809 -0.0011464751 -0.0028862418 -0.0042030243 -0.002366777 0.0007074366 5.753282e-05 -0.0016197693
-0.0035767418 0.00023076808 -0.0052354406 -0.005119484 -0.0006013805 -0.0041095843 -0.004956157 -0.005528378
-0.0027300867 -0.0065171663 -0.006112797 -0.0055182786 -0.003020846 -0.0040515247 -0.0013794323 -0.0012642193
0.00219265 0.00094619323 0.0014557677 0.00045174154 0.005593309 0.002136735 0.003920457 0.0012574529
0.0016660832 0.0038561 0.0046451753 0.0011766598 0.0031317775 0.0011462565 0.005039434 0.0007805091
0.001415572 0.00097303983 -0.0017569622 0.003340265 0.0026732946 0.0006290714 0.0033118215 0.0007919175
0.0014518333 0.0011903257 0.001959103 0.0027743785 0.00092896586 0.0023638564 -0.0016904977 0.0036168373
0.0029526341 0.001232443 0.0021603378 0.002832711 0.00023724107 0.005203217 0.0009757796 0.0015312716
0.005329751 0.0051220376 0.0021565773 0.0010062078 0.0005309292 0.0047665606 0.0009566271 0.0013697414
0.009543315 0.002939344 0.004253671 0.0014337235 0.0025353606 -0.0006969898 0.003319343 0.0017253439
0.005407501 0.00077433535 0.0005026386 0.0007920167 0.0005039823 0.003138085 0.0028423895 0.0042574783
0.001419169 -0.002094396 0.005629341 -0.0023390304 0.00056710467 0.00095697725 0.0016125967 -0.0028938677
-0.0036855568 0.0031308474 0.0031935426 -0.0028162207 0.0016435836 0.0016087748 0.0020266387 -0.0024268222
-0.00035023017 -8.582185e-06 -0.00055065285 -0.00146159 0.0026903297 -0.00136101 -0.00052618876 0.000754299
-0.0025710482 0.0046685976 0.0012639866 0.0007655399 -0.0020919784 0.0040392196 -0.00022444625 -0.005925493
0.002302995 -0.00026449905 4.962644e-06 0.0026689842 0.0037655595 0.0011127805 -0.00047341982 -0.0019751329
-0.0031431713 -0.0017569908 0.0008334131 -0.005270225 0.0007283648 -0.003342511 -0.0038710607 -1.4652667e-05
0.0056629158 0.0015638637 0.0044817985 0.0010425046 0.0013114435 5.426875e-05 0.0031469879 -0.0008342413
-0.00021023775 -0.0050884266 0.0001341326 -0.003978124 -0.0016209736 -0.0021607678 -0.0007454632 -0.0018176432
-0.0020078784 -0.0005060748 -0.0006670326 0.0019348735 0.0043213507 -0.0038172088 0.0026850088 0.00035489674
0.00079856784 6.88185e-05 0.0011827435 -0.001799584 0.0009013502 0.0005366711 -0.004387474 0.004045569
-0.007276763 -0.0027406109 -4.4092958e-05 0.0016652076 0.0013421922 0.0019085683 -2.5811007e-05 -0.00032346562
-0.0013840982 0.0012304569 0.00096133334 0.00032862663 0.0037343635 0.0013769037 0.00073278917 0.0011366084
0.0009035504 0.0015607299 -0.0018681485 0.0047983434 0.00016541618 -0.00015969134 -0.00052196556 0.004740048
0.00012588005 -0.00082599174 0.0025727693 0.0066089896 -0.000602776 0.0020707166 -0.00013294035 -0.00035981988
0.0015876036 0.0012247526 -0.0012835719 -0.007302182 0.00051820057 0.0011463355 0.0014809485 -0.0022174455
0.0003977501 0.0046966393 0.00085529144 0.0050766957 -0.0022454904 0.0009805727 -0.0024419653 0.0037506726

exp_avg_sq f4 [64, 64]
00000000: 134b 5439 c356 b838 c4dc 3139 d4f6 8a38
00000010: b7cb 7439 617c 4639 bbc6 f539 3950 6d38
00000020: 4c8e ee38 4ab9 8039 4a6e 2339 bc7e c738
00000030: 8014 c539 39a1 f138 c8ae c139 2283 9039
00000040: e93f fb38 a932 e738 05ef e638 3307 6339
00000050: fd2c 5f39 168d f038 511e 5e39 8ae1 7f39
00000060: 4a25 8a38 42d3 2939 2d52 c838 71ba 8039
00000070: b0ee 1739 7827 9539 cd7a 6b38 17ef 3939
00000080: 580c 093a e8e2 4839 84c7 b838 c909 9639
00000090: c231 2839 def2 9c38 f2bd 3337 ac8e 7d39
000000a0: d460 f738 416c 4439 3036 2239 054d 2c39
000000b0: daaf fc38 4e52 2139 3ace 8a38 debb 9838
000000c0: ba00 cd39 55ad 7238 ea1d 0639 dac2 2939
000000d0: bc19 a638 0b9a 1c39 15a5 0d39 5b31 7439
000000e0: ad30 cf39 9754 ef39 146b 9039 4f5d 3739
000000f0: a2f1 3039 4c0c f538 8b90 f237 062a 6739
00000100: 6d87 3938 ef73 1738 0dff 0338 5ca4 8937
00000110: 9c83 f238 c2dc 8338 cff1 8839 ec0b e537
00000120: e1fd 8838 799f 0e39 edee af38 dd8e f537
00000130: 7e5c 8339 33eb 3b38 c733 1939 f6dc a638
00000140: 7689 c837 75c5 1238 aad0 4638 b656 1d39
00000150: 4b1b eb38 9d5e ce37 fbd1 f738 1f41 8038
00000160: a629 7837 d774 9438 1736 0338 a17d 3839
00000170: 0289 4d38 b515 9f38 46cc 2138 177c 8d38
00000180: 6884 ab39 ab21 8838 755d fe37 9e74 5839
00000190: 3b34 cf38 e7e1 5938 dba1 ec36 4df1 e938
000001a0: a1e6 7838 4f69 cb38 655e 1439 8b04 9e38
000001b0: 066d e637 c52b da38 0482 0138 ad96 b037
000001c0: 851e 7339 882e 0038 5b86 c338 3c59 c437
000001d0: 57de b238 c16a 9d38 d70e a538 300e 9d38
000001e0: a9e9 3c39 a177 5e39 8da0 7d38 e391 a838
000001f0: 9fdd 4a38 c891 8c38 dc76 6d37 089d 1e39
00000200: cef2 6d39 5ebc 0439 7d2a 4e39 cbf2 6538
00000210: 0fec a539 238a 7139 ff7e d939 9a5a ad38
00000220: 3ab8 7439 2c67 b039 b44b 7039 ec63 f138
00000230: c205 e739 0060 2639 6561 d039 7cdf 8339
00000240: c47c 0239 0b1b b638 cf60 e438 3af9 3f39
00000250: 259c 8d39 7e58 9c38 e79a 3d39 6a7b 4539
00000260: 1550 aa38 53e8 6439 4070 e638 cb25 7739
00000270: 6bfc ff38 e70b df39 b14d 8538 f0bf 7239
00000280: 8387 3a3a cf3f 7b39 a0ab b438 9647 9e39
00000290: 8274 1739 8271 c238 4482 2a38 3ba9 9439
000002a0: fc54 1339 683d 1b39 7691 2739 c320 8639
000002b0: 9b93 1039 c4ee 1439 d54d c338 1e45 9538
000002c0: fced fa39 c372 8138 f0e0 4d39 8c5e 3739
000002d0: 95bd a138 9cdf 1639 c690 6039 b540 9139
000002e0: d73e a539 1209 0e3a d302 9239 3b73 2f39
000002f0: a1dd 1a39 e2c5 8239 196c 8738 3f6d 4a39
00000300: 17f7 b939 42f5 4c39 6ac8 4c39 bfce 5a38
00000310: 0d6a 8a39 bea9 9739 9a4f dd39 687b 1c39
00000320: e2c2 5639 0df2 8339 648a 2639 cf47 3039
00000330: 7bb1 9339 a4ed 0e39 13f7 073a d627 c539
00000340: df97 6c39 a324 1639 0066 1339 c06c 3339
00000350: 747f 4839 00e9 9b38 b48e 6439 9d5b 8839
00000360: bbbc 2c39 50f4 3a39 3507 1739 be89 7939
00000370: 80dd 2b39 0b18 e039 7f4f 4038 3e52 9639
00000380: 2acd 313a 62b6 7839 e3b8 1b39 5a8a 7939
00000390: bea0 e938 e253 8138 2c7b 7b37 555b cd39
000003a0: 6012 2139 b505 7339 761a cf38 6f30 c039
000003b0: 56cc f438 d53e 1d39 41f9 ea38 9add ff38
000003c0: 9a29 a739 7260 5e38 5138 ed38 af06 9039
000003d0: 8a5d 6738 b499 1139 ebf5 2939 0a5c d239
000003e0: e9f0 f739 ed53 283a b4ce ee39 c2a1 8739
000003f0: d490 8e39 5766 2639 5722 5938 53b9 3539
0.00020245863 8.789964e-05 0.00016962277 6.626328e-05 0.00023345543 0.00018929086 0.00046878107 5.6579916e-05
0.00011375229 0.00024552114 0.00015585977 9.5126656e-05 0.00037590042 0.000115218056 0.0003694205 0.00027563522
0.00011980517 0.000110243745 0.000110117755 0.00021651089 0.00021283697 0.00011470371 0.00021182864 0.00024402715
6.5872984e-05 0.00016195796 9.5520496e-05 0.00024552972 0.000144894 0.000284489 5.6142733e-05 0.00017732043
0.00052279746 0.00019158015 8.8109664e-05 0.0002861752 0.00016040265 7.483897e-05 1.07134565e-05 0.0002418111
0.000117959135 0.00018732344 0.0001546971 0.0001643189 0.00012049051 0.00015384817 6.6187655e-05 7.282918e-05
0.00039101188 5.7858724e-05 0.0001279038 0.00016189684 7.92029e-05 0.00014934705 0.00013508306 0.0002328804
0.00039518383 0.00045648657 0.000275456 0.00017487 0.00016874683 0.00011684801 2.8915956e-05 0.00022045532
4.4233562e-05 3.6109177e-05 3.147037e-05 1.6408208e-05 0.000115639734 6.287686e-05 0.00026120103 2.7304479e-05
6.532274e-05 0.00013601583 8.389154e-05 2.9272802e-05 0.0002505518 4.480332e-05 0.00014610506 7.956654e-05
2.3905868e-05 3.499301e-05 4.7401212e-05 0.00015004989 0.00011210757 2.4601171e-05 0.0001181699 6.1156454e-05
1.4791649e-05 7.078953e-05 3.128321e-05 0.00017594408 4.9003407e-05 7.585754e-05 3.8575636e-05 6.7465175e-05
0.00032714312 6.4912565e-05 3.0322679e-05 0.00020642809 9.880258e-05 5.194722e-05 7.0521905e-06 0.000111552516
5.9342598e-05 9.6994096e-05 0.00014149545 7.534873e-05 2.7468905e-05 0.00010403203 3.0877083e-05 2.1050999e-05
0.00023185655 3.0560914e-05 9.32335e-05 2.3406574e-05 8.5291154e-05 7.506228e-05 7.870577e-05 7.488986e-05
0.00018016122 0.00021216135 6.0469425e-05 8.038038e-05 4.8366954e-05 6.702874e-05 1.4153975e-05 0.00015126553
0.00022692533 0.00012658673 0.00019661519 5.4823973e-05 0.0003164713 0.00023035011 0.00041484085 8.266159e-05
0.00023338283 0.00033646205 0.00022916385 0.000115103874 0.00044064043 0.00015866756 0.00039745416 0.00025152776
0.00012444245 8.6834734e-05 0.00010889919 0.00018308024 0.00027009952 7.4551426e-05 0.0001808215 0.0001883336
8.121148e-05 0.00021830322 0.00010988163 0.00023569835 0.00012206364 0.00042542742 6.356405e-05 0.00023150421
0.000711553 0.00023960996 8.6150365e-05 0.00030189444 0.00014443885 9.271783e-05 4.0652478e-05 0.00028354846
0.00014050672 0.00014804828 0.0001598055 0.0002558288 0.00013787897 0.00014203327 9.312822e-05 7.117748e-05
0.00047861028 6.1725754e-05 0.00019634119 0.00017487461 7.712391e-05 0.00014388416 0.00021416237 0.00027704766
0.00031518072 0.00054182217 0.00027849394 0.00016732227 0.00014769148 0.00024942966 6.4574364e-05 0.00019304919
0.00035470046 0.00019546322 0.00019529616 5.2167798e-05 0.00026400425 0.00028927432 0.00042211713 0.00014923292
0.0002048123 0.0002516661 0.00015882548 0.00016811419 0.00028170258 0.00013630703 0.0005186658 0.00037604448
0.0002256329 0.00014318763 0.0001405701 0.00017111283 0.00019120966 7.4343756e-05 0.00021796935 0.000260082
0.00016473506 0.00017829356 0.00014403167 0.00023797803 0.00016390346 0.00042742523 4.5850404e-05 0.00028671505
0.0006782586 0.00023719066 0.00014850828 0.0002379803 0.00011140246 6.166824e-05 1.4989444e-05 0.00039168695
0.00015361002 0.00023176412 9.875458e-05 0.0003665718 0.00011672887 0.00014996094 0.00011204417 0.00012200624
0.00031883718 5.3018746e-05 0.000113115304 0.000274708 5.5161807e-05 0.00013885536 0.00016208708 0.00040122896
0.00047291003 0.00064211973 0.00045548903 0.00025869726 0.00027192256 0.00015869118 5.1768813e-05 0.00017330544

exp_avg f4 [64]
00000000: 9c7f 2ebb 9884 a73a 1303 80b9 177c fe39
00000010: 5f1b 093a 3f49 883a 8cb9 64b9 72d9 59ba
00000020: 5de3 3439 82af d6ba 0482 cd3a 3f6a 9aba
00000030: 3757 b63a bfe0 b8b8 e469 873a 1839 9b3a
00000040: 8dd7 943a 477b d7ba 0eec c0ba fdf9 7839
00000050: b815 b9ba 879f e1ba eaa0 68b9 1926 28bb
00000060: a243 6ab9 3978 35ba 0d9b d738 0217 a4ba
00000070: a4e2 25bb 693c afb8 3f14 363b 4dba 8dba
00000080: 0537 14ba 39bb 2ebb 3fc3 0a3a 46ce 25ba
00000090: c0cd 8d39 b70c d639 8969 ff3a 0327 a33a
000000a0: 132e 26ba d323 f3ba 83e4 c43a ce99 c63a
000000b0: da42 81b9 1097 913a cd52 483b 0de6 13bb
000000c0: 309b 433b 436d d43a bb26 b1ba 7bd7 d13a
000000d0: 4cfd b6ba 0a5a 09b8 9281 593a 5c75 04ba
000000e0: 0e25 14bb cc7b 7fba 10aa 6c3a 2c77 bcb9
000000f0: 6b51 1739 69f6 0cbb 1c06 65b9 c27e cfba
-0.0026626354 0.0012780605 -0.00024416353 0.0004853911 0.0005230214 0.0010397806 -0.00021812896 -0.0008310295
0.00017250837 -0.001637921 0.0015679006 -0.0011780931 0.001391149 -8.815666e-05 0.001033124 0.0011842577
0.0011355743 -0.0016439938 -0.0014718787 0.00023744251 -0.0014120853 -0.001721368 -0.0002218519 -0.0025657474
-0.00022341174 -0.00069225166 0.00010280879 -0.0012519064 -0.002531209 -8.3559025e-05 0.0027783064 -0.0010812968
-0.00056539505 -0.0026661886 0.0005293376 -0.00063249876 0.0002704691 0.00040826734 0.0019486408 0.001244754
-0.0006339263 -0.0018550105 0.0015021715 0.0015152039 -0.00024654606 0.0011107642 0.0030566931 -0.002256754
0.0029847138 0.0016206879 -0.0013515571 0.0016009653 -0.0013960986 -3.27472e-05 0.00082972005 -0.00050528883
-0.0022605094 -0.0009745925 0.0009028027 -0.00035946944 0.00014430813 -0.0021509177 -0.00021841418 -0.0015830623

exp_avg_sq f4 [64]
00000000: 678b 1238 36f4 8537 b1ee 2038 1042 2c38
00000010: 72c6 9437 38a7 1c38 2a62 7a38 999b 1038
00000020: 4a88 cf37 a388 5638 39c6 ad37 1013 2d38
00000030: 3548 7438 c054 0c38 a886 e837 1ee7 2838
00000040: 162b fc37 ec0c 0838 e202 2238 98a0 5038
00000050: 1c22 2938 33af 6e38 e0b6 6f37 8405 3d38
00000060: 2af1 9d37 9269 cd37 ab5a 1a34 8dd8 0438
00000070: a028 3a38 eff9 bf37 20bc 5338 8e54 1338
00000080: e82f 0138 b54a 1538 9272 3e38 afe3 4838
00000090: 6f20 5038 7082 e334 5ecd 2838 d1cb 1438
000000a0: e7a6 1938 962b 0a38 06b2 1638 b98c 0b38
000000b0: 1eb6 eb34 00fa 2138 dd3d 1238 d67b 0038
000000c0: 74b3 3638 ba99 fc37 b734 2538 c6ad 4137
000000d0: 0cbd e137 a045 7835 d579 4338 de87 9d37
000000e0: 6c48 ed37 ba2f c937 21b1 8638 1893 3b38
000000f0: be14 5d37 8df2 1f38 f3ab 5d38 0a89 7c38
3.493894e-05 1.5968555e-05 3.836927e-05 4.106952e-05 1.7735383e-05 3.7349033e-05 5.9696067e-05 3.4477187e-05
2.4739787e-05 5.114883e-05 2.0715512e-05 4.1264168e-05 5.824138e-05 3.345753e-05 2.771926e-05 4.0269566e-05
3.0060804e-05 3.243696e-05 3.8626495e-05 4.974063e-05 4.0324507e-05 5.690679e-05 1.4288089e-05 4.506625e-05
1.882816e-05 2.4487064e-05 1.4375352e-07 3.167293e-05 4.438369e-05 2.2885359e-05 5.0481525e-05 3.512628e-05
3.0800613e-05 3.5593945e-05 4.5406232e-05 4.7895763e-05 4.962127e-05 4.237695e-07 4.0245584e-05 3.547577e-05
3.6633483e-05 3.2942356e-05 3.5928584e-05 3.327124e-05 4.390467e-07 3.8618222e-05 3.4866727e-05 3.063291e-05
4.355931e-05 3.0112325e-05 3.938816e-05 1.1544156e-05 2.6910122e-05 9.2488517e-07 4.6605088e-05 1.8779127e-05
2.8286326e-05 2.3983292e-05 6.422611e-05 4.4721266e-05 1.3177456e-05 3.8134447e-05 5.2850646e-05 6.020911e-05

exp_avg f4 [10, 64]
00000000: f21c 34bb 597d 013b 1f5b 38bb 125e 8e3b
00000010: 7861 823b c1aa 583b 3f7d 39bb 654a 573b
00000020: 4724 d5bb 9597 d0b9 dc31 7ab9 8f9b 823b
00000030: 4406 893b 6f4b 3ebb 4636 723b 7b2d c7ba
00000040: 11c1 e53a c631 c6bb 6286 d7bb 0b1f 4a3b
00000050: 3829 14bb 6cf6 de3b de89 bcbb ad9b 3c39
00000060: df66 2c3b 8425 14bc 6355 ad35 e7e3 d13a
00000070: 0c8d 043c 7113 c739 7fad b53b bfdd 053c
00000080: c480 0dbc 5aa4 15bc ad3f ac3a faa4 c23b
00000090: 7eb8 393c b116 063a d45a 7a3b 1384 a03c
000000a0: 431c bf3b 3471 cfba fda2 4dbb 44dc 6abb
000000b0: eb6c 1738 a371 59bb 49d3 f23a 70c7 70b8
000000c0: c3fe ba3a da56 ddba 2551 6bbb 792a 713a
000000d0: b316 36bb caa8 5936 7c02 293b fabc 0d3b
000000e0: ce94 ca3b 0986 d1bb a403 603c 6ff4 5539
000000f0: f613 77bb e535 743a b14b e43b b8bd a43b
00000100: 7326 08bb 82c3 ec3b a29d 993b cab7 e53b
00000110: 41a8 483b 9239 0b3b 0732 193c f1f8 97bb
00000120: 3a85 933a 8b6e 343b bccf 88ba ba68 a53b
00000130: 5669 1c3a ed08 09bb abda b13b da13 44b9
00000140: 60f9 d23c 7109 123b cb5b ec3b 7dde 103c
00000150: 5650 393b 7eb2 a43b a847 8a3a 33f8 763b
00000160: 9354 653c bba8 523a 5ca0 e7b8 14f7 a53b
00000170: a206 2c3c 26e6 663c 218c 943b 08a8 c73b
00000180: 3f5e 33bb feb8 893b 67a9 853c fa77 36bb
00000190: cc59 8b3c 91f7 27bb 20da a0bb 3b27 fe3c
000001a0: 14fb db3b 56ec 823b 8cd5 753c aeca 86bb
000001b0: e119 1438 3814 c53b eea9 8b3c d1ac 9d3b
000001c0: e248 f2ba 710a 7b3b 7fff b73b f732 7e3b
000001d0: 92da 103c 4bd5 40b7 3dde cd3a d7ba 663b
000001e0: db97 a13c 5174 e23b 3124 083c 698a 133a
000001f0: d760 bb3b 8f64 863b 0e3b ad3b 15a9 0ebc
00000200: 1103 ee3b eb11 a8bb 9bde 75bb e242 35bc
00000210: a52f 893b 5e0e 23bc ee83 49bc e175 fc3b
00000220: 1a1a 223b 0bde 833b c209 d5ba c31f 9d3b
00000230: 1cd2 223b 7eb7 8fb9 475c 1838 8b7e 953b
00000240: a66b 63bc 1f9a ec3a 3a61 e73b 7920 b4bb
00000250: e45a cb3b c105 993a e5be dd3b 62a0 9b3b
00000260: 59d6 7fbb 4674 4d3a de79 ad36 d55d 2e3b
00000270: ceb6 a5bb c651 f43b 9fdf 803b bce4 9eba
00000280: 457f 643b a9be 57bb dc1d 35bb 9355 f83b
00000290: 93f5 0fbc 3d46 503a cd3b ab3b 58ea b3bc
000002a0: 8090 10bc 4901 473b 559c 6abc 6fc3 ce3b
000002b0: 4696 a2b9 4a24 97bb b1cf 92bc 1486 5f3b
000002c0: d45f a33b 8e6c babb 0744 0bbb a7e9 2639
000002d0: b411 51bc f434 8337 98d2 183b 4c07 e63b
000002e0: d46a c6bb af6b 143b f91c 6c39 70a2 9f3b
000002f0: 5b37 05b9 45dd 7abb 8c55 57bc 9383 d83b
00000300: 0383 a43c f4b6 663c 111c 1e3c 2700 313c
00000310: 888d 36bb 27a4 ca3c 3c79 9a3c 1105 433d
00000320: 59e0 903b 4d74 3a3c 0390 cf3b deef e13b
00000330: 69e6 bd3c a6c2 e63c 1544 973c 9165 0a3b
00000340: 6b30 173c 6824 d03c 664d 593c 1c13 903b
00000350: 97fe 153c 9a26 783c 69d4 1b3c 8f09 303c
00000360: 9085 4e3c d994 f03b 87dc 5d37 a111 843c
00000370: a4b0 6d3c 22be 39bb 85a2 c2bb 5b5a 683c
00000380: 14eb d63c 77c2 493c 624d 753c 1e9e b53c
00000390: befb 9d3b d238 54ba 254f 863c 4d68 a83c
000003a0: 64f6 f53c d340 283c 3967 293c f347 363c
000003b0: 8048 5f39 ab8c 6e3c 0c57 863c 9852 3d3a
000003c0: e62d 2b3c 11ea 793c 122c 393c 40ae a53b
000003d0: d92c d23b 8896 8436 a2b0 513c 2275 fe3b
000003e0: 643a 383c 3114 913b 7941 343c 4bcb 433c
000003f0: 5c42 813b f952 e43c eec6 343c 3924 183d
-0.0027483073 0.001975855 -0.0028130484 0.00434471 0.0039789043 0.0033060762 -0.0028303412 0.003285074
-0.0065045687 -0.0003978579 -0.00023860432 0.003985829 0.004181655 -0.002903666 0.003695862 -0.0015196049
0.0017528852 -0.006048414 -0.006577299 0.0030841257 -0.0022607576 0.006804278 -0.0057537397 0.00017987071
0.0026306433 -0.009042148 1.2914355e-06 0.0016013355 0.008090269 0.00037970723 0.005544364 0.008170544
-0.008636657 -0.009133423 0.0013141535 0.005940077 0.01133549 0.00051150756 0.003820111 0.019594228
0.0058322265 -0.0015826584 -0.0031377666 -0.0035836855 3.6102643e-05 -0.0033179305 0.0018526103 -5.74062e-05
0.0014266599 -0.0016886846 -0.003590652 0.00091997493 -0.0027784526 3.2433768e-06 0.0025788834 0.0021627531
0.0061822897 -0.006394152 0.013672743 0.00020404322 -0.0037701107 0.0009315892 0.006967031 0.005027499
-0.002077487 0.007225455 0.0046879807 0.0070104348 0.0030617865 0.0021244031 0.009350306 -0.0046378304
0.0011254915 0.002753171 -0.0010437886 0.005047885 0.0005966624 -0.0020909861 0.0054276786 -0.00018699412
0.025753677 0.002228346 0.007213091 0.008842108 0.0028276644 0.0050261607 0.001054992 0.003768456
0.013997215 0.0008036007 -0.000110448076 0.0050648544 0.010499628 0.014092958 0.004533306 0.006093029
-0.0027369407 0.004202961 0.016316129 -0.0027842508 0.017010592 -0.0025629739 -0.004908815 0.031024566
0.0067132805 0.0039954586 0.015004527 -0.004113517 3.531005e-05 0.006014373 0.017048802 0.004811861
-0.0018484856 0.0038305784 0.0056151743 0.0038787702 0.008841174 -1.1493753e-05 0.0015706491 0.003520658
0.01972573 0.0069108387 0.00830941 0.00056282297 0.0057183313 0.004101343 0.005286581 -0.0087073045
0.007263549 -0.005129089 -0.0037516716 -0.011063309 0.004186588 -0.009952156 -0.012299521 0.007704482
0.0024734796 0.0040242723 -0.0016253518 0.004795046 0.0024844473 -0.00027411798 3.6325564e-05 0.0045622042
-0.013880646 0.0018051303 0.007061151 -0.005497035 0.0062059034 0.0011674688 0.006767141 0.0047493437
-0.0039037673 0.00078374555 5.169989e-06 0.0026606221 -0.0050571924 0.007456037 0.0039329077 -0.0012122612
0.0034865898 -0.0032920039 -0.0027636206 0.0075785606 -0.008786577 0.00079450366 0.0052256347 -0.02196233
-0.008823514 0.0030365756 -0.014319499 0.0063099186 -0.0003101101 -0.0046124803 -0.0179213 0.0034107016
0.004985789 -0.0056892103 -0.0021250264 0.00015918036 -0.012760568 1.5641075e-05 0.0023318883 0.007019913
-0.0060552154 0.0022647192 0.00022517507 0.004871659 -0.0001270449 -0.003827886 -0.013142955 0.0066074817
0.020082003 0.014081705 0.009650246 0.010803259 -0.0027855355 0.024736477 0.018856637 0.047612254
0.0044212756 0.011380267 0.006334306 0.0068950495 0.023181157 0.028168987 0.018465081 0.0021117667
0.009227852 0.025407985 0.013263082 0.0043968093 0.009154937 0.015145922 0.009511092 0.010744466
0.012605086 0.007341963 1.3223972e-05 0.016121687 0.014507446 -0.0028342088 -0.005939784 0.014181699
0.02623514 0.01231443 0.014972063 0.022170123 0.00482127 -0.0008095625 0.01639516 0.020557547
0.030024715 0.010269362 0.010339552 0.0111255525 0.00021293946 0.014559905 0.016398929 0.0007222085
0.010447955 0.01525356 0.011302011 0.0050561726 0.0064140377 3.9514307e-06 0.01279846 0.007765428
0.01124439 0.004427456 0.011001938 0.011950324 0.003944678 0.027871596 0.011033757 0.03714392

exp_avg_sq f4 [10, 64]
00000000: f154 2f3a 7df7 0539 cedf 393b c8d9 0f3a
00000010: 0c6a 813b 9c90 823a 97f2 213b 9342 cb3a
00000020: c11b 5939 caa0 b639 4b5d a638 32d1 223a
00000030: e17a a739 4084 d53a 3459 743b 27e0 653b
00000040: 73eb 9639 a27e 253a 94ec 3c3a 0546 1a39
00000050: 9de1 1339 a5fe 163a cc20 8838 c071 473a
00000060: c20d b538 3faa af39 1ba5 a133 9176 3d3b
00000070: 27ca a83b 0e30 8f3b 14b3 863a 5eb4 2a3b
00000080: d4e7 7b3a 6f56 8c3a b834 1b3a 5952 8239
00000090: cedc 093b 44d4 9234 a073 9a39 3604 013c
000000a0: 055a 163b 53d3 cf3a 3add e039 fb7b 1238
000000b0: 3bad e533 827f 9e39 8f77 5c39 1f2a 843a
000000c0: a0e6 1b39 9c55 9837 e724 3f3b 243a 7438
000000d0: 10e8 6739 06da b632 9155 ac3a 38b0 9e39
000000e0: cd32 5a3a a4c6 bb39 1469 2f3b 30c4 743a
000000f0: 7c34 2e39 548f a23b ecdf d239 4d82 693a
00000100: 7bd4 c43a 51c5 e53a 00c8 9239 c740 123b
00000110: 95e0 2039 4a4b c83a 7787 623a 9ea3 263a
00000120: 2fe6 d237 b894 0c3a 6101 7039 b43f 163a
00000130: 79b7 f33a f091 a23a d19a 633a e009 ad39
00000140: 36cf 543b aa34 b03a 8dd3 693a 280c f439
00000150: 7db4 8d39 ad07 473b ea5b 6939 d76e 9839
00000160: 009a 003b a9d2 9938 0a17 0534 44da 9939
00000170: fba6 723a e0a5 823a b7b4 fe38 7ff2 473b
00000180: d01f 9539 a966 cc39 57c8 073b 4632 163b
00000190: 2f46 443b 1bff b335 77e1 b939 9b31 003c
000001a0: 1eea 173a 739d 3339 cb8b f93a 9d83 eb39
000001b0: 9980 cf34 f1f6 bc3a b86f 273b 764c 9339
000001c0: 3d5e d539 2036 4e3a b819 5239 bcd7 9938
000001d0: 54a6 d339 1b48 8035 552a 8639 3bcf 2939
000001e0: 2592 0f3b 02ec 7139 541d bb3a d93d 403b
000001f0: 4b1a e938 3cce ea3a 8178 a13a 5450 953a
00000200: ef6f d13a 8efd 823a 84ab 563b 4c06 a43b
00000210: 149b 013b d73d 933b a3a6 e03b 4f94 0b3b
00000220: 6dcf d339 fdc7 983a 6d7c 133a a298 2f3a
00000230: e37e 513b dae5 903b 04e9 0d3b f64f ef3a
00000240: 447e 993b da38 2f3b f9d7 123b 952f 7c3a
00000250: 7374 a939 df71 c13a 0e25 303a 1811 be39
00000260: 3ca7 8a3a ad0e 8c3a 65b4 5d34 9473 253b
00000270: d412 f63b ded3 a03b c190 313a e03b 283b
00000280: 93f0 af3a 9118 193b 89d4 853a 89eb 223a
00000290: 8da5 9d3b 4943 8735 bd1f 773a 3b1f 9b3c
000002a0: e373 ac3b 6377 1a3a 47ed 713b b9e8 a739
000002b0: bc32 9135 75fa ac3a 1431 283b 1f56 3d3b
000002c0: da86 f539 5468 9039 b4dc 5e3b 94e0 4339
000002d0: 24b0 333b 3345 ed35 8e2d 953a 978a 563a
000002e0: d142 8e3b 3817 933a f3d4 433b c948 a53b
000002f0: 7747 9b39 5e6e 373c d016 5b3b 8901 fe3a
00000300: b8c6 f33a 84a9 a53a d31f dd3a 23d9 f43b
00000310: 3ba8 873a 0382 0f3b 8a0f b03b 0b49 103c
00000320: 71ec 8539 8bbe 823a f4ef 703a 87e2 8f3a
00000330: 1ed3 b73b 7f96 0a3c 2139 2b3b bdb6 543b
00000340: f5c7 223b da40 023b b268 143b 0494 6d39
00000350: 6037 8239 a591 393b 3784 4d39 86c9 c23a
00000360: 8711 683a 3210 9a39 9a40 7233 2a7d 5a3b
00000370: bc6a a83b f447 983b 591c 7639 0d0f cc3b
00000380: 69c9 013b d69d 583a 4c94 d73a 6de9 6a3b
00000390: a7c6 9f3b b338 2637 3a27 5c3b 19e6 a33c
000003a0: bcd2 e03b 801b 993a 25fa 143b 0d2d 023a
000003b0: 0253 d334 8a5c 493a 7525 013b 37bc 723a
000003c0: 1a47 2d3b 13ab ee39 9fe1 bb3a e534 163a
000003d0: f393 453a 7f38 9035 b44e 9a3b 3c0e 393a
000003e0: 0a97 4d3b 72ed da39 b98e a33b aaf5 bf3a
000003f0: 47b1 5c39 c40b 223c 0c18 123b 829f ca3b
0.00066883775 0.00012776065 0.0028362158 0.0005487469 0.0039494094 0.000996131 0.0024711245 0.0015507512
0.00020705072 0.00034833542 7.932874e-05 0.0006210982 0.00031944274 0.0016290024 0.0037284615 0.0035076232
0.00028785653 0.000631312 0.0007206884 0.00014712669 0.0001410306 0.0005759991 6.491094e-05 0.00076081976
8.633315e-05 0.00033505444 7.527179e-08 0.0028909782 0.0051510516 0.0043697422 0.0010276758 0.0026047449
0.0009609435 0.0010706912 0.00059206365 0.00024856886 0.002103615 2.7349063e-07 0.00029459316 0.007874539
0.002294184 0.0015855826 0.00042889436 3.492458e-05 1.0695154e-07 0.0003023111 0.00021025374 0.0010083354
0.00014867866 1.8159677e-05 0.0029166283 5.822828e-05 0.00022116327 2.1286734e-08 0.0013148059 0.00030267402
0.000832361 0.00035815418 0.0026765512 0.00093370955 0.00016613485 0.0049609337 0.00040221156 0.0008907661
0.0015016937 0.0017530118 0.00027996302 0.0022316442 0.00015342452 0.0015281227 0.00086414017 0.00063567783
2.5141138e-05 0.0005362737 0.00022888697 0.00057315384 0.0018594108 0.0012403112 0.0008682432 0.0003300449
0.003247214 0.001344343 0.0008919768 0.00046548364 0.0002702809 0.0030369565 0.00022254852 0.0002907428
0.001962304 7.334847e-05 1.2394972e-07 0.00029345055 0.00092564494 0.0009967647 0.000121453246 0.003050953
0.00028443197 0.000389864 0.0020718777 0.002291815 0.002994906 1.3410785e-06 0.00035453934 0.007824327
0.0005795079 0.00017129425 0.0019038854 0.00044920752 3.8650322e-07 0.0014416856 0.0025548767 0.00028094993
0.0004069674 0.00078663416 0.00020036742 7.335792e-05 0.0004036898 9.557729e-07 0.00025590012 0.00016194295
0.0021907177 0.00023071471 0.0014275708 0.002933374 0.00011115203 0.0017914246 0.0012319238 0.0011391737
0.0015978793 0.0009993778 0.003275604 0.0050056335 0.0019776272 0.004493456 0.006855802 0.0021298116
0.000403996 0.0011656281 0.0005626146 0.0006698464 0.00319665 0.0044219317 0.002165378 0.0018258083
0.0046842415 0.0026736767 0.0022406562 0.00096201274 0.00032320953 0.0014758668 0.0006719389 0.0003625236
0.0010578404 0.0010685526 2.0647856e-07 0.0025245892 0.0075095687 0.004908069 0.0006773584 0.0025670454
0.0013423137 0.002336059 0.0010210435 0.0006214907 0.004810995 1.0077866e-06 0.00094270316 0.01893579
0.005262838 0.0005892424 0.003691511 0.00032026114 1.0818108e-06 0.0013197201 0.0025664018 0.0028890444
0.00046830514 0.0002754355 0.003400606 0.00018680311 0.002741822 1.7678016e-06 0.0011381374 0.00081841036
0.004341461 0.001122213 0.0029881566 0.005044077 0.0002961715 0.011195747 0.0033430345 0.001937912
0.0018598652 0.001263902 0.0016870446 0.007472174 0.0010349819 0.0021897561 0.005372946 0.008806477
0.000255439 0.0009974999 0.0009191029 0.0010977545 0.005609884 0.008458733 0.002612658 0.0032457553
0.0024838422 0.001987508 0.002264541 0.00022657221 0.0002483679 0.002831557 0.00019599577 0.0014861084
0.00088527094 0.00029385235 5.640377e-08 0.0033338764 0.005139677 0.0046472494 0.00023470949 0.00622738
0.0019803888 0.00082632655 0.0016447394 0.00358447 0.004875976 9.907572e-06 0.0033592717 0.02000718
0.006861059 0.0011681169 0.0022732106 0.00049658195 3.936221e-07 0.0007681331 0.0019706164 0.00092596136
0.0026440085 0.00045522358 0.0014334208 0.0005729928 0.0007537 1.0745279e-06 0.004709089 0.0007059311
0.0031370544 0.0004175711 0.004991379 0.0014645357 0.00021046876 0.0098905 0.0022292165 0.0061835656

exp_avg f4 [10]
00000000: a408 003b eefb 363b 274b b139 5466 143c
00000010: 8e5a 9dbb ddfc 49bc fc40 103b c7d0 b7b9
00000020: d9eb 2cbb 0086 773b
0.00195364 0.0027921158 0.00033816064 0.0090576 -0.0048020547 -0.012328354 0.002201139 -0.0003506003
-0.0026385693 0.003776908

exp_avg_sq f4 [10]
00000000: 7f0a 8b39 90b6 af39 ed50 0f3a 1980 1f3a
00000010: 76ef 043a d4ef 353a 865a b639 032d f839
00000020: 62b6 3b3a 59bf 303a
0.00026519966 0.0003351462 0.0005467076 0.00060844567 0.0005071083 0.0006940339 0.0003478119 0.00047335782
0.0007160661 0.000674238
